data.pth (torch, 6111 bytes, 6 tensors)

l1.weight f4 [8, 66]
0	0x3d65833b	0.056033354
1	0x3dddca29	0.108295746
2	0x3f8f60fe	1.1201475
3	0xbea3d4ca	-0.31998283
4	0x3eb6712b	0.35633215
5	0x3e9f1ce2	0.31076723
6	0x3f2d5413	0.6770641
7	0xbe718aeb	-0.23588149
8	0xbcd8838d	-0.026429916
9	0xbf299a27	-0.6625084
10	0x3f7d95f5	0.9905694
11	0xbe31b9c5	-0.17356022
12	0x3ee8a4af	0.45438144
13	0xbe983cf9	-0.29734018
14	0xbf4ad32a	-0.7922846
15	0xbf04418b	-0.5166251
16	0xbe8dd53e	-0.27701753
17	0x3dc27a9c	0.09496042
18	0x3ef2a07d	0.47388068
19	0x3f3601e4	0.71096635
20	0xbe85fc2c	-0.26168954
21	0x3f293324	0.6609366
22	0xbda2212d	-0.07916484
23	0x3f2174b5	0.63068706
24	0x3f2964ef	0.6616964
25	0x3f3ead24	0.7448294
26	0x3f1264e9	0.57185227
27	0xbea98a19	-0.33113173
28	0x3f033b85	0.51262695
29	0xbe100cfc	-0.14067453
30	0xbe1770ac	-0.14789075
31	0x3f3e0e52	0.742406
32	0x3f48f244	0.7849467
33	0x3f248031	0.64258105
34	0xbeb5f601	-0.3553925
35	0x3e5dd62f	0.21663736
36	0xbec34fe5	-0.38146892
37	0x3e4c58a8	0.19955695
38	0xbdc0751f	-0.09397339
39	0x3f33413f	0.7002143
40	0x3f63e813	0.8902599
41	0xbf1bdc07	-0.6088261
42	0xbf14b644	-0.58090615
43	0xbf2ff5ea	-0.6873461
44	0x3f13b8e0	0.5770397
45	0xbe297d6e	-0.16551754
46	0xbe7839ac	-0.2424075
47	0x3f04e1ba	0.5190693
48	0x3f1c841f	0.611391
49	0xbf26b4d3	-0.65119666
50	0xbe987a91	-0.2978101
51	0xbe999b1e	-0.30001158
52	0xbf019f3d	-0.50633603
53	0x3f480bd0	0.78143024
54	0x3e9e2ca4	0.30893433
55	0xbf085f71	-0.5327063
56	0x3f32b722	0.6981069
57	0x3d5cd051	0.053909604
58	0x3f016af2	0.5055381
59	0x3f3bf5a5	0.734217
60	0x3d13e201	0.036104206
61	0xbd65a220	-0.056062818
62	0xbeae9066	-0.34094542
63	0x3f4cd5b5	0.8001359
64	0xbe038eed	-0.1284749
65	0x3ec58aef	0.3858256
66	0x3f13495f	0.5753383
67	0x3f41883f	0.7559852
68	0xbea4bfea	-0.3217767
69	0xbf0aff6f	-0.5429601
70	0xbe3b9d5f	-0.18321751
71	0xbe26b199	-0.16278686
72	0x3f69f21c	0.91385055
73	0xbe872730	-0.26397085
74	0xbeb4c22b	-0.35304388
75	0xbf4007cc	-0.750119
76	0xbec67de4	-0.38767922
77	0xbef0707b	-0.46960816
78	0xbeae936f	-0.34096858
79	0x3ef76dbb	0.48325905
80	0xbe57c244	-0.210702
81	0x3f08009a	0.5312592
82	0x3f0c8b0a	0.54899657
83	0x3e90cf03	0.28282937
84	0xbec9a82b	-0.39386114
85	0x3f4ffcfe	0.8124541
86	0x3eb2c1b7	0.34913418
87	0xbf32547d	-0.6966017
88	0x3edbdc6d	0.4294161
89	0xbf3c1d05	-0.7348178
90	0xbf3ab996	-0.7293943
91	0xbe34ef01	-0.17669298
92	0xbf0ab870	-0.5418768
93	0xbd7f7355	-0.06236585
94	0xbee1fce8	-0.44138265
95	0x3ea5e6ad	0.32402554
96	0x3f16d340	0.5891609
97	0x3ec98ad2	0.39363724
98	0x3ed5d9e9	0.41767815
99	0x3ef20505	0.47269455
100	0x3f1c1168	0.6096406
101	0x3ef547e6	0.47906417
102	0xbf240d08	-0.64082384
103	0x3eeb07e6	0.45904464
104	0x3e840ade	0.2578954
105	0x3f8b5654	1.088572
106	0x3f01e7f6	0.5074457
107	0xbe960094	-0.29297316
108	0xbec3174e	-0.38103718
109	0xbf0cea1f	-0.5504474
110	0x3dab1109	0.083528586
111	0xbe57cf6f	-0.21075223
112	0xbdb27286	-0.0871325
113	0x3e48706b	0.19574134
114	0x3f194b95	0.59880954
115	0x3f049fd2	0.51806366
116	0x3ef19b98	0.4718902
117	0x3f08d96c	0.5345676
118	0xbdbb5ffd	-0.09149168
119	0x3f3cb9e3	0.7372114
120	0x3f23fd74	0.64058614
121	0x3f914a57	1.1350812
122	0xbefb052a	-0.49027377
123	0x3f0ceb19	0.5504623
124	0xbde9f52a	-0.114237145
125	0x3eff5d60	0.49875927
126	0x3ed6a5ed	0.41923466
127	0x3df55068	0.11978227
128	0x3eb06b00	0.34456635
129	0x3f3ade43	0.72995394
130	0xbde3ca95	-0.11122624
131	0x3f3a794a	0.7284132
132	0x3ed01008	0.4063723
133	0xbe9a180d	-0.30096474
134	0xbf4674ce	-0.7752198
135	0x3efe410d	0.49659005
136	0x3ee9dcea	0.45676357
137	0x3f1e40c6	0.61817586
138	0xbf00b5b8	-0.5027728
139	0x3ee64089	0.4497111
140	0x3ec201f5	0.37892118
141	0x3ee9ae58	0.45640826
142	0x3f24d266	0.6438354
143	0x3eb231d9	0.34803656
144	0x3ebfda2a	0.37471133
145	0xbd2c5494	-0.042072847
146	0x3f4a474a	0.7901503
147	0x3e39a6a7	0.18129979
148	0xbe217f94	-0.15771323
149	0xbc2e5875	-0.010641207
150	0x3e9d42f3	0.3071514
151	0xbf00bcf8	-0.50288343
152	0x3ec31046	0.38098353
153	0x3f13dbf6	0.5775751
154	0x3ef0600a	0.46948272
155	0x3ee1b46d	0.44082966
156	0x3ee118dc	0.4396428
157	0xbf621195	-0.8830808
158	0x3e928ed1	0.28624585
159	0x3ee7aaf9	0.4524763
160	0xbce5ac74	-0.028036334
161	0x3f13669f	0.5757846
162	0xbede4910	-0.43415117
163	0xbf0c20fc	-0.5473783
164	0xbf3158e2	-0.6927625
165	0xbf2c8140	-0.6738472
166	0x3d822154	0.06354013
167	0x3ecca787	0.39971563
168	0x3ee9f82f	0.45697162
169	0xbe01aa07	-0.12662517
170	0xbe2f1e1d	-0.17101331
171	0x3f053e6f	0.5204839
172	0xbe9fd31a	-0.31215745
173	0xbecf866c	-0.40532243
174	0xbecad8af	-0.3961844
175	0x3f0157d2	0.5052463
176	0xbeb4fa44	-0.35347188
177	0x3eddcd43	0.43320665
178	0x3efd0566	0.4941818
179	0xbe0362f8	-0.12830722
180	0xbf0603dd	-0.52349645
181	0x3f4d384f	0.80164045
182	0xbd0250a1	-0.031815175
183	0xbd2f14b6	-0.04274436
184	0x3efb566e	0.49089378
185	0xbf438084	-0.76367974
186	0xbe342c82	-0.17595103
187	0x3f1cd8e5	0.61268455
188	0xbee3ab27	-0.44466516
189	0x3ebec82f	0.37262103
190	0x3eb5a070	0.35473967
191	0x3e4e3e45	0.20140941
192	0x3eba9898	0.36444545
193	0xbdda15b3	-0.1064867
194	0x3f091f5c	0.53563476
195	0x3d93f9f9	0.07225413
196	0x3e94dcb6	0.2907464
197	0x3f4111c2	0.7541772
198	0x3f52a902	0.82289135
199	0x3f1fdb09	0.62443596
200	0xbe2e03d9	-0.16993655
201	0x3e5230eb	0.20526473
202	0xbe549246	-0.20758924
203	0x3db6226b	0.088932835
204	0xbf0dcfab	-0.55395
205	0x3e9d4dfa	0.30723554
206	0x3dc92a7b	0.09822556
207	0x3ea24229	0.316911
208	0x3f1889a3	0.59585017
209	0x3e162524	0.14662606
210	0xbeadf86d	-0.33978596
211	0xbd64d3d3	-0.055866074
212	0x3f23ce2a	0.63986456
213	0x3de3e0e4	0.11126879
214	0x3ea7dfe5	0.32788005
215	0xbe61cbc9	-0.22050394
216	0xbe5b169b	-0.21395342
217	0xbf0dbf75	-0.55370265
218	0x3f199bbc	0.60003257
219	0xbf0dc2b7	-0.55375236
220	0x3f1b1d35	0.6059144
221	0xbf0dc770	-0.5538244
222	0xbf0b8405	-0.5449832
223	0xbe648b37	-0.22318731
224	0xbf5936b8	-0.8484912
225	0x3e222b20	0.15836763
226	0xbdfcbff2	-0.12341298
227	0x3ebb6cd2	0.3660646
228	0x3ec754e5	0.38931957
229	0xbdcfd432	-0.10147895
230	0x3cd6021f	0.026124058
231	0xbf27efc3	-0.6560022
232	0xbdb11554	-0.08646646
233	0x3ec655bf	0.38737294
234	0x3dfe2ec2	0.12411262
235	0x3ed2eb87	0.41195318
236	0xbe022b96	-0.12711939
237	0x3e9dada2	0.30796534
238	0x3ed8db80	0.42354965
239	0xbf0d51d7	-0.55203
240	0xbf0c9a34	-0.54922795
241	0x3e5f48fd	0.21805187
242	0x3a9ce6d3	0.0011970646
243	0x3e43c717	0.19118915
244	0x3e689856	0.22714362
245	0x3d8f4190	0.06994927
246	0xbeef645d	-0.4675626
247	0x3edc3090	0.430058
248	0xbdd71320	-0.10501695
249	0x3ede5392	0.43423134
250	0x3d4cd78a	0.05001024
251	0x3f33bfdd	0.70214635
252	0x3eb41e94	0.3517958
253	0x3fa16092	1.2607596
254	0x3e32dfd1	0.17468192
255	0x3f246155	0.64211017

l1.bias f4 [8]
0	0x3f8d3836	1.1032779
1	0x3f3c1d19	0.734819
2	0x3f00b8f6	0.5028223
3	0x3f0dbe53	0.55368537
4	0xbe0532ff	-0.13007735
5	0x3f7457eb	0.9544665
6	0x3f43bc8f	0.7645959
7	0x3f448606	0.76767004

l2.weight f4 [8, 8]
0	0x3f740a29	0.95328003
1	0x3ee59fa7	0.44848368
2	0xbfa4ade8	-1.2865572
3	0xbf8a4187	-1.0801247
4	0x3e44ef89	0.19232
5	0x3f9a431b	1.2051729
6	0x3f818889	1.0119792
7	0x3fa70f7f	1.3051604
8	0xbfba7f7a	-1.4570153
9	0x3f645c4b	0.8920333
10	0x3fa5caf3	1.295256
11	0x3f81465b	1.0099596
12	0x3ea41c25	0.32052723
13	0xbd7a52a0	-0.061113954
14	0x3f950f24	1.1645246
15	0x3fa12a37	1.2591008
16	0x3fac8b77	1.3480061
17	0x3f966f4f	1.1752719
18	0xbf30018b	-0.68752354
19	0x3f74f41c	0.9568498
20	0xbe9bf396	-0.3045928
21	0xbfb159cc	-1.3855529
22	0x3dfadd22	0.12249209
23	0x3eed43c7	0.46340773
24	0x3fa0a873	1.2551407
25	0xbf246923	-0.64222926
26	0x3f9838cd	1.1892334
27	0xbe012912	-0.12613323
28	0xbdedf06e	-0.11618124
29	0x3f928c64	1.1449094
30	0x3f4e5bfb	0.806091
31	0xbf883aee	-1.0642984
32	0x3e1eb028	0.15496886
33	0xbfc3422c	-1.5254569
34	0x3f659470	0.8967962
35	0xbd939e01	-0.07207871
36	0xbe9df397	-0.30849907
37	0x3f863192	1.0483878
38	0x3f8320c1	1.0244371
39	0x3f4c5782	0.79821026
40	0xbb9f4000	-0.0048599243
41	0xbe81361b	-0.25236592
42	0xbe74fb22	-0.23923925
43	0xbe93068b	-0.2871593
44	0xbe96ab26	-0.2942745
45	0xbeac3808	-0.33636498
46	0xbe6fa0d6	-0.23401198
47	0xbe85e069	-0.26147774
48	0x3eee08dd	0.46491137
49	0x3de7f826	0.113266274
50	0xbe11e28a	-0.14246574
51	0x3eec639e	0.46169752
52	0xbe341431	-0.17585827
53	0xbed2822a	-0.41114932
54	0x3ccda924	0.025105067
55	0xbeb6caf5	-0.3570172
56	0x3f89c859	1.0764266
57	0x3f90ac46	1.1302574
58	0x3f4ccf43	0.80003756
59	0x3ef1f646	0.47258204
60	0x3ea1e1b5	0.31617513
61	0x3f84e65c	1.03828
62	0xbf5ffcdb	-0.874952
63	0xbe7f48f7	-0.24930178

l2.bias f4 [8]
0	0x3f0f4c79	0.55976063
1	0x3deb3e84	0.11486533
2	0x3e507eec	0.20360917
3	0xbc62c8ae	-0.013841791
4	0x3ed8adb7	0.42320034
5	0xbe0e55f1	-0.13899972
6	0xbde50f81	-0.11184598
7	0x3f491818	0.7855239

l3.weight f4 [12, 8]
0	0x3f133050	0.57495594
1	0xbf4a80ce	-0.7910279
2	0x3c66fd38	0.014098458
3	0xbd0433c4	-0.03227593
4	0x3de863ce	0.11347161
5	0xbd29fd20	-0.041501164
6	0xbdfd1eb2	-0.1235937
7	0xbf36e412	-0.7144176
8	0xbfd02cc4	-1.6263661
9	0xbfd730e7	-1.6811799
10	0x3edadf45	0.42748466
11	0x3eceed00	0.40415192
12	0xbf08e13a	-0.5346867
13	0xbe16d985	-0.14731415
14	0x3f1602a4	0.5859778
15	0x3f229b37	0.6351809
16	0x3efe64eb	0.4968637
17	0x3f1b7586	0.607262
18	0xbf8de643	-1.1085895
19	0xbfac4cb1	-1.3460904
20	0xbdbe4467	-0.092903905
21	0xbd804a00	-0.062641144
22	0xbf72857c	-0.9473493
23	0xbfb966b2	-1.4484465
24	0x3f64959b	0.8929078
25	0xbed264b1	-0.41092446
26	0xc00f39f8	-2.2379131
27	0xbf492762	-0.7857572
28	0x3f1ad631	0.6048308
29	0xbe1f2a58	-0.15543497
30	0xbf808c23	-1.0042766
31	0xbe0b2c37	-0.13591085
32	0x3ec84b85	0.39120117
33	0x3e47009d	0.19433828
34	0x3eb90f99	0.36144713
35	0xbf93b7a2	-1.1540415
36	0xbf8e0964	-1.1096616
37	0x3e2fc67e	0.17165563
38	0xbd72d7fd	-0.059288014
39	0xbf87747f	-1.0582427
40	0x3f553350	0.8328142
41	0xbfff9dbb	-1.997001
42	0xbe61c5f0	-0.22048163
43	0xbe0b74fc	-0.13618845
44	0xbfa9e2d1	-1.3272344
45	0xbe5d48ff	-0.21609877
46	0xbf6f129f	-0.9338779
47	0x3f19a5d9	0.6001869
48	0x3e0fccf3	0.14043026
49	0xbfc8e5e6	-1.569516
50	0xbfe9509c	-1.8227725
51	0x3f64fc0c	0.89447093
52	0x3f1da2d6	0.6157659
53	0xbe701cd8	-0.23448503
54	0xbee0549c	-0.43814552
55	0x3cfbaa62	0.030720893
56	0xbf8d225f	-1.1026114
57	0x3ec4ee62	0.38463122
58	0xbf8c1240	-1.094307
59	0xbeab9b7c	-0.33517063
60	0xbdf6a882	-0.12043859
61	0xbe0c100c	-0.13677996
62	0xbfa21630	-1.2663021
63	0x3eb94727	0.36187097
64	0xbe1d8c36	-0.15385517
65	0xbee4dea3	-0.44701108
66	0xbf1eb90d	-0.62001115
67	0x3f161282	0.5862199
68	0xbf236d06	-0.6383823
69	0x3e4fbdd6	0.2028726
70	0x3e54110c	0.20709628
71	0x3ed2eb84	0.4119531
72	0xbf353a4e	-0.7079209
73	0x3ea60557	0.3242595
74	0xbf9720d5	-1.1806895
75	0x3f004e2d	0.50119287
76	0x3f3105a2	0.6914922
77	0x3e930b13	0.28719386
78	0xbf17a698	-0.59238577
79	0xbfa73931	-1.3064328
80	0xbe13f3d0	-0.14448476
81	0xbfb0193a	-1.3757699
82	0x3f83730f	1.0269488
83	0xbfd22c3d	-1.641975
84	0xbf4dc881	-0.8038407
85	0x3e2435aa	0.16036096
86	0x3f0b0546	0.5430492
87	0x3e16ea9e	0.14737937
88	0xbfbf7369	-1.4957095
89	0x3e757075	0.2396868
90	0x3dd62e28	0.10458022
91	0xbf921d02	-1.1415102
92	0xbfaa501f	-1.3305701
93	0x3dc0bc18	0.09410876
94	0x3ca4f390	0.02013567
95	0x3ef51156	0.4786479

l3.bias f4 [12]
0	0xbe67842d	-0.22609015
1	0xbe977ce7	-0.2958748
2	0xbec6b447	-0.38809416
3	0x3e94e978	0.29084373
4	0xbe8c7466	-0.27432555
5	0xbcf3add1	-0.029745968
6	0x3d052423	0.032505166
7	0xbcc6793e	-0.024227735
8	0xbef47343	-0.47744188
9	0xbe530d16	-0.2061046
10	0x3cece4b3	0.028917646
11	0x3ec592b2	0.38588482
